examples/test7/model.pt (torch, 274192 bytes, 7 tensors)

al|bias f4 [2]
0.00450178 -0.026477968
00000000: ab83 933b 53e8 d8bc

cl1|weight f4 [256, 4]
0.28422734 -0.3477799 0.24142878 0.21882938 0.3621546 -0.38662043 0.3556047 -0.23318374
0.19657189 0.48555142 -0.06913113 -0.016565414 -0.10406648 -0.41486785 0.2355762 -0.49603477
0.31929067 0.38943666 0.47920007 -0.12926266 -0.40674043 0.1188401 0.28013995 -0.5043548
-0.11969031 -0.30811253 -0.04986242 -0.25182974 -0.1940508 -0.16002129 -0.4853834 0.4085451
0.41874373 -0.08532533 -0.06507781 -0.20399296 -0.459861 -0.49442247 0.18331107 -0.2846064
-0.31221205 -0.038209643 -0.1708901 -0.16062883 0.024918277 -0.104406744 -0.18126245 -0.2409634
-0.4020557 0.4175799 -0.20616688 0.13182916 -0.17322561 0.034007702 0.4677553 0.2383673
-0.42671302 0.19887835 0.47009873 0.13145262 0.34569088 0.50583726 -0.06853876 0.09767953
-0.33712575 -0.1005294 0.36764532 0.25735632 -0.31203437 -0.4066498 -0.35525256 -0.49639958
-0.40124795 -0.13949585 0.3410683 0.09306226 -0.3794773 -0.4063019 0.24102415 -0.37533677
-0.052378196 0.2471602 -0.23090617 -0.058640543 -0.03039124 -0.10444416 -0.26706287 -0.46291897
-0.4131216 -0.2760092 0.48773438 -0.23900704 -0.32805514 0.11962826 0.13579501 0.27892128
0.38266158 0.27912953 -0.50151604 0.042820644 0.30300623 -0.060258802 -0.29134285 0.49228093
-0.19022103 -0.30097985 -0.4689856 0.031022193 0.2402116 0.12910588 0.089569815 -0.39430737
-0.46937984 -0.0022221897 0.46425745 0.3039647 -0.31044808 -0.085723765 -0.38081172 -0.25679886
0.09227063 0.2695589 0.40921634 -0.4587079 0.327176 -0.36738938 0.2004354 0.44006014
0.007776817 0.4517489 -0.4319913 -0.19144636 0.29489353 -0.11330785 -0.11281941 -0.20824207
0.35424578 0.2600193 0.15685332 -0.2957475 -0.39511904 0.054494184 0.14424051 -0.228109
-0.1352284 0.34913227 0.042598035 0.0136724645 -0.109224804 -0.44818434 -0.47463533 -0.23909862
-0.24455321 0.16793066 -0.14157532 -0.20649484 0.4881245 0.18837643 0.35516354 -0.2541313
-0.19841312 0.18859132 -0.33655277 -0.33450338 -0.024358857 -0.20165682 -0.3864587 0.31096864
0.4053917 0.08292038 -0.094993494 -0.4698942 -0.17824422 0.122160114 0.2318367 -0.058077253
-0.19195454 0.277805 -0.40614253 0.31343532 -0.21079724 -0.010683279 -0.09832878 0.06516273
-0.15239452 0.3567804 -0.02072973 0.39005306 0.4797268 -0.2661297 -0.3824118 0.41125774
0.39518392 -0.3855714 -0.046157468 -0.49003124 -0.42446178 0.08317892 0.13419567 0.10549887
-0.118930906 0.4768955 0.0698395 -0.3062502 -0.01890058 0.13387407 0.17458467 -0.3669391
0.17172305 -0.27331433 -0.44097713 -0.29902038 0.4817911 0.42234102 0.4415753 0.2932383
0.3763539 -0.08049364 -0.28901947 0.25048178 -0.25471792 -0.3473984 -0.16614038 0.110932775
0.25888604 -0.20135671 -0.30218866 0.06850472 -0.30163026 -0.3445082 0.24899642 -0.078887664
0.45646843 0.48197144 0.1448806 0.17174266 0.11514187 0.007830441 -0.036366224 0.006872058
0.19472414 0.4799985 -0.12926799 -0.22651747 -0.13816455 -0.26127735 0.104005076 0.39030427
0.39774817 0.2353968 -0.37587652 -0.27775693 -0.1000042 -0.080569 0.036921583 -0.469955
00000000: 3f86 913e 3510 b2be 1b39 773e cf14 603e
00000010: 546c b93e 1df3 c5be d211 b63e b8c7 6ebe
00000020: 244a 493e 329a f83e 9f94 8dbd 31b4 87bc
00000030: cf20 d5bd 8f69 d4be e33a 713e 45f8 fdbe
00000040: 117a a33e 3e64 c73e b659 f53e 6e5d 04be
00000050: 4840 d0be 7062 f33d 816e 8f3e 651d 01bf
00000060: 3120 f5bd edc0 9dbe 893c 4cbd d4ef 80be
00000070: 41b5 46be 9fdc 23be 2c84 f8be d32c d13e
00000080: 9465 d63e 0cbf aebd 8447 85bd 88e3 50be
00000090: e772 ebbe f124 fdbe e6b5 3b3e eeb7 91be
000000a0: 42da 9fbe b781 1cbd d0fd 2ebe e27b 24be
000000b0: 6a21 cc3c 34d3 d5bd dd9c 39be 1cbf 76be
000000c0: 3fda cdbe 08cd d53e 691d 53be 39fe 063e
000000d0: 0e62 31be a94b 0b3d 9f7d ef3e 8f16 743e
000000e0: 217a dabe c4a6 4b3e c8b0 f03e 849b 063e
000000f0: 65fe b03e 8d7e 013f 0d5e 8cbd 350c c83d
00000100: bf9b acbe 5ce2 cdbd 023c bc3e 35c4 833e
00000110: f8c2 9fbe 6734 d0be aae3 b5be 1628 febe
00000120: 5f70 cdbe 00d8 0ebe 81a0 ae3e 6d97 be3d
00000130: d94a c2be cd06 d0be 09cf 763e 242c c0be
00000140: 858a 56bd 9017 7d3e ab72 6cbe 1131 70bd
00000150: 0df7 f8bc d2e6 d5bd 77bc 88be b703 edbe
00000160: ad84 d3be 1451 8dbe 52b8 f93e 43be 74be
00000170: d8f6 a7be a9ff f43d d90d 0b3e c5ce 8e3e
00000180: 38ec c33e 11ea 8e3e 5b63 00bf b364 2f3d
00000190: a223 9b3e efd1 76bd e42a 95be 3f0c fc3e
000001a0: 4dc9 42be 081a 9abe e11e f0be 4122 fe3c
000001b0: 08fa 753e 5534 043e 6170 b73d a8e2 c9be
000001c0: 8e52 f0be 28a2 11bb 27b3 ed3e 43a1 9b3e
000001d0: 0df3 9ebe f18f afbd c1f9 c2be 247b 83be
000001e0: 62f8 bc3d a003 8a3e ce84 d13e c3db eabe
000001f0: 9d83 a73e 761a bcbe f03e 4d3e 904f e13e
00000200: abd4 fe3b a24b e73e f72d ddbe 840a 44be
00000210: 49fc 963e f20d e8bd dd0d e7bd 693d 55be
00000220: b45f b53e 4021 853e 289e 203e 376c 97be
00000230: 0b4d cabe 4b35 5f3d c9b3 133e 6895 69be
00000240: 5079 0abe 77c1 b23e 477b 2e3d 7902 603c
00000250: 41b1 dfbd 6b78 e5be 6703 f3be 45d6 74be
00000260: 286c 7abe 04f6 2b3e 1ff9 10be 6273 53be
00000270: 74eb f93e c0e5 403e ffd7 b53e 7f1d 82be
00000280: cf2c 4bbe 151e 413e a550 acbe 0744 abbe
00000290: 3a8c c7bc 207f 4ebe eadd c5be 4837 9f3e
000002a0: 808f cf3e 29d2 a93d f38b c2bd f995 f0be
000002b0: a785 36be 152f fa3d 9a66 6d3e 6ae2 6dbd
000002c0: bb8f 44be 753c 8e3e eaf1 cfbe 987a a03e
000002d0: 3bdb 57be eb08 2fbc 9960 c9bd 0a74 853d
000002e0: 4f0d 1cbe ecab b63e 65d1 a9bc 09b5 c73e
000002f0: c09e f53e 2742 88be 7bcb c3be 6090 d23e
00000300: 8c55 ca3e 9d69 c5be 9d0f 3dbd 60e5 fabe
00000310: 0e53 d9be b659 aa3d 976a 093e cb0f d83d
00000320: 0c92 f3bd a62b f43e 0308 8f3d d4cc 9cbe
00000330: 64d5 9abc 4916 093e 53c6 323e 71df bbbe
00000340: 2bd8 2f3e dbef 8bbe c1c7 e1be 3319 99be
00000350: 53ad f63e 153d d83e 2816 e23e 5523 963e
00000360: 75b1 c03e d9d9 a4bd 5cfa 93be 263f 803e
00000370: 636a 82be 34de b1be b420 2abe b930 e33d
00000380: b68c 843e 7430 4ebe 79b8 9abe 344c 8c3d
00000390: 486f 9abe 6163 b0be ebf8 7e3e db8f a1bd
000003a0: 3bb6 e93e f6c4 f63e 945b 143e 4fdd 2f3e
000003b0: 80cf eb3d 404b 003c c0f4 14bd 002f e13b
000003c0: c465 473e 5dc2 f53e d45e 04be 32f4 67be
000003d0: 027b 0dbe 25c6 85be 9d00 d53d f6d5 c73e
000003e0: a6a5 cb3e dc0b 713e e372 c0be 2836 8ebe
000003f0: 01cf ccbd 5c01 a5bd 163b 173d f19d f0be

cl3|weight f4 [256, 256]
-0.025802422 -0.05306648 -0.03637783 -0.05038409 -0.027206197 0.047374614 0.035518695 0.029450495
-0.0148367565 0.023303684 -0.005899436 -0.011717187 -0.08040815 -0.06449383 -0.047286116 -0.007921421
-0.00997313 0.01040004 0.06060132 -0.011135266 -0.011933583 -0.044923604 -0.038931962 -0.0716203
0.024174526 0.030282326 0.0491877 -0.0074688923 -0.02606457 -0.0052738 -0.02588966 0.021498876
-0.026726974 -0.020009913 0.010862201 -0.0057733636 -0.040739644 -0.06792693 0.00065182085 -0.00533752
-0.044332113 0.01596195 -0.01734594 -0.041367453 -0.06462862 0.0056217406 -0.086864375 -0.014311158
-0.026136797 0.053289946 0.013070948 0.01228381 0.030901697 0.01697429 -0.06335583 0.008074226
-0.01999229 -0.05968716 -0.007095417 -0.037483342 -0.029533433 -0.022030082 -0.059039913 0.061150894
-0.079045445 0.014311316 -0.09023754 -0.007600443 0.015055739 0.04727826 -0.056362055 -0.014194045
-0.025121087 0.04339515 0.011823352 0.034252215 -0.03176072 -0.06957293 0.03464944 -0.07633109
-0.0017316279 -0.012484435 0.02909281 -0.010093066 -0.072428174 -0.026325082 0.0063711195 0.035162885
0.05374741 -0.03725162 0.0039309557 -0.04644685 -0.009003764 0.0012360583 0.049738336 -0.026804786
-0.050035954 0.017061714 -0.032677997 -0.042314436 -0.060547676 -0.028323509 0.039043933 0.016401405
-0.02067152 0.03314847 -0.032762434 0.0134707615 -0.006091375 -0.026301898 0.021104932 -0.06449289
-0.02066235 -0.04042149 -0.007030489 -0.035943344 -0.0068133464 -0.025745083 0.047744952 -0.03617635
0.019675432 -0.048189156 0.027363634 -0.014719202 0.011174624 -0.0027127664 0.055224385 0.030565333
-0.08663172 0.0032198783 -0.07543643 0.01408428 0.017696239 -0.048671715 -0.025995549 0.018159794
-0.03743107 0.04367357 0.0003564167 0.03918891 -0.013979644 -0.04491853 0.014750439 -0.019388966
-0.03068338 -0.027014438 0.018494235 0.01485631 -0.017063562 0.04510836 -0.08542822 0.011914924
-0.07143202 0.019930236 -0.07632217 -0.016233275 0.010081153 0.04042972 -0.06425254 -0.0154201025
-0.024482006 0.0024339333 -0.034129743 -0.01462782 -0.06377896 0.02620916 0.07411866 -0.065619506
0.0023245234 0.041096352 0.058749 -0.015092031 -0.020588338 0.053458266 0.046395943 0.06734643
-0.0033550165 0.00234621 0.008269972 -0.042425998 -0.014909693 -0.046394546 0.013909034 -0.029638525
-0.026401207 0.015237159 -0.09204386 -0.053208854 -0.021233127 0.016327547 0.037969008 -0.036589652
-0.018582132 -0.06634083 -0.04523131 0.044761576 0.012154071 -0.03268435 -0.024879798 -0.016780557
0.026924841 -0.017959641 -0.07070436 0.012729421 -0.007415217 0.03902304 -0.007230826 0.03771219
0.036021702 0.007924228 -0.015997827 0.02794512 -0.00013668835 0.022685202 0.049520265 0.02804013
-0.048922446 0.03960745 -0.009988158 -0.005895248 0.0621407 -0.060983755 0.057507195 0.05171312
-0.041044217 -0.06915602 -0.09639518 -0.036734745 -0.041752268 -0.016174376 0.025390415 0.018474136
0.0012246149 0.0006148121 -0.0023930836 -0.06684548 -0.06840181 0.013007826 0.06848308 0.008968223
-0.034463223 -0.029578416 -0.047618277 -0.04146889 0.050558094 0.0014709149 -0.041852407 -0.02193166
0.010752632 -0.04132415 0.023493439 0.04304064 -0.069308884 -0.05174774 0.0014212175 -0.05242049
00000000: 9a5f d3bc 3d5c 59bd eb00 15bd 8c5f 4ebd
00000010: 88df debc e20b 423d 0d7c 113d 2a42 f13c
00000020: de15 73bc 5ee7 be3c 0e50 c1bb 72f9 3fbc
00000030: 07ad a4bd 5715 84bd 16af 41bd d9c8 01bc
00000040: 5766 23bc ee64 2a3c 1739 783d b170 36bc
00000050: 1385 43bc d001 38bd 1f77 1fbd aaad 92bd
00000060: a809 c63c a412 f83c 0b79 493d 9cbd f4bb
00000070: 5d85 d5bc d7cf acbb 8d16 d4bc 691e b03c
00000080: 87f2 dabc d4eb a3bc 60f7 313c 7c2e bdbb
00000090: 9dde 26bd 461d 8bbd f5de 2a3a 5de6 aebb
000000a0: 9795 35bd a3c2 823c 1319 8ebc eb70 29bd
000000b0: 035c 84bd 9436 b83b f3e5 b1bd 5979 6abc
000000c0: d61c d6bc 8f46 5a3d 8827 563c 0942 493c
000000d0: 8e25 fd3c ab0d 8b3c b4c0 81bd c249 043c
000000e0: dfc6 a3bc 867a 74bd ac80 e8bb 2288 19bd
000000f0: 19f0 f1bc 6e78 b4bc d6d3 71bd 5c79 7a3d
00000100: 94e2 a1bd 037a 6a3c 76ce b8bd 230d f9bb
00000110: 59ac 763c d9a6 413d e6db 66bd 248e 68bc
00000120: bdca cdbc 1dbf 313d bcb6 413c 0d4c 0c3d
00000130: 8717 02bd 417c 8ebd 92ec 0d3d 7953 9cbd
00000140: caf7 e2ba 848b 4cbc 0b54 ee3c 635d 25bc
00000150: 3955 94bd b3a7 d7bc d3c4 d03b f506 103d
00000160: 3f26 5c3d 2895 18bd 3fcf 803b 0d3f 3ebd
00000170: 8684 13bc 3c03 a23a 6dba 4b3d b695 dbbc
00000180: 80f2 4cbd 02c5 8b3c 5dd9 05bd e751 2dbd
00000190: d700 78bd b406 e8bc 88ec 1f3d 3d5c 863c
000001a0: 5257 a9bc b1c6 073d e731 06bd 78b4 5c3c
000001b0: 289a c7bb 1477 d7bc 40e4 ac3c d914 84bd
000001c0: 1744 a9bc 0191 25bd 0460 e6bb 5439 13bd
000001d0: 7e42 dfbb 5ae7 d2bc 3690 433d a72d 14bd
000001e0: 5f2e a13c fe61 45bd b329 e03c cf28 71bc
000001f0: c515 373c abc8 31bb f732 623d 2664 fa3c
00000200: f96b b1bd 9804 533b 6a7e 9abd c0c1 663c
00000210: b4f7 903c fe5b 47bd 9ef4 d4bc d9c3 943c
00000220: 5251 19bd 0fe3 323d 71dd ba39 8d84 203d
00000230: e00a 65bc 7efc 37bd d3ab 713c 9cd5 9ebc
00000240: b65b fbbc 624d ddbc 3981 973c e167 733c
00000250: e2c8 8bbc 8bc3 383d fef4 aebd d036 433c
00000260: f34a 92bd bc44 a33c cc4e 9cbd a5fb 84bc
00000270: 6c2b 253c a299 253d d696 83bd 99a4 7cbc
00000280: 7d8e c8bc a082 1f3b a1cb 0bbd 86a9 6fbc
00000290: 8b9e 82bd 98b4 d63c 86cb 973d 8563 86bd
000002a0: 0857 183b a654 283d cba2 703d 9144 77bc
000002b0: e0a8 a8bc 0ef7 5a3d ac09 3e3d edec 893d
000002c0: d6df 5bbb dfc2 193b c77e 073c e2c6 2dbd
000002d0: c947 74bc 3508 3ebd b8e2 633c 7ecc f2bc
000002e0: 5847 d8bc 47a5 793c 7e81 bcbd 87f1 59bd
000002f0: 18f1 adbc 59c1 853c 6485 1b3d 08df 15bd
00000300: 8e39 98bc b3dd 87bd 7744 39bd ea57 373d
00000310: de21 473c 06e0 05bd b8d0 cbbc 6177 89bc
00000320: 7c91 dc3c 1920 93bc 73cd 90bd 108f 503c
00000330: 59fb f2bb a0d6 1f3d 91f0 ecbb 1978 1a3d
00000340: 7e8b 133d 9fd4 013c e00d 83bc 2aed e43c
00000350: 0054 0fb9 51d6 b93c c3d5 4a3d 6ab4 e53c
00000360: e762 48bd 6c3b 223d 5fa5 23bc ed2c c1bb
00000370: 3f87 7e3d 1aca 79bd aa8c 6b3d 23d1 533d
00000380: fb1d 28bd aca1 8dbd d66a c5bd 2c77 16bd
00000390: 6d04 2bbd 2080 84bc 8fff cf3c 1257 973c
000003a0: 4283 a03a 572b 213a 48d5 1cbb 48e6 88bd
000003b0: 4016 8cbd c71e 553c db40 8c3d 74ef 123c
000003c0: 4f29 0dbd 6f4e f2bc 620b 43bd 48db 29bd
000003d0: 0116 4f3d b7cb c03a 6e6d 2bbd 06aa b3bc
000003e0: cf2b 303c 8343 29bd 5075 c03c 624b 303d
000003f0: d1f1 8dbd 70f5 53bd 2548 ba3a deb6 56bd

cl|weight f4 [1, 256]
-0.048070274 0.03956091 -0.039215524 0.04816226 -0.056047246 0.0797524 0.03904289 -0.08670075
-0.059513107 -0.04300528 -0.065907136 -0.0871547 0.06540165 0.03832105 -0.06954461 -0.06954869
0.09172542 0.07525416 0.016715823 0.091983534 0.09169798 -0.04142088 0.0727828 0.08524932
0.076308794 0.06270055 -0.06996274 -0.0293493 -0.06837729 0.06675997 0.055163763 -0.049064398
0.089023106 0.048116155 -0.021483107 -0.05625105 -0.06273014 0.06736398 -0.046769258 0.06790255
0.02423128 0.063271575 0.08214148 0.03898014 0.036320146 -0.037347544 0.065729275 0.03668557
0.04474467 -0.041804887 -0.03990053 -0.055770997 -0.0653212 0.06734481 -0.07085863 0.0630851
0.067858726 -0.080919854 -0.051928163 0.059067663 -0.045976635 0.07841322 0.073194094 0.045905378
-0.08001078 -0.08142183 0.07497201 -0.055969797 0.08927074 0.055070203 -0.05209103 0.04301447
0.044482335 0.06145738 0.09337267 0.050840575 0.08743075 0.048002183 -0.051092457 -0.034290638
0.069640376 0.065941826 -0.08704875 0.073672034 -0.038052518 0.058093682 0.09656209 0.09407719
0.045213718 -0.039726343 -0.09016348 0.08476234 -0.043272294 0.07080669 -0.06898588 -0.09296173
0.044467364 -0.081169195 0.053114213 0.046603072 -0.090711296 0.09245362 0.05328362 -0.07093874
0.040291626 0.06224112 0.06688499 0.045216084 0.043544404 0.034843534 0.07095317 -0.08850413
-0.05509315 -0.05941771 0.07496614 0.07919554 -0.0656747 -0.08561095 -0.030686408 -0.066501856
0.04940325 -0.058242407 -0.035530142 -0.08905386 -0.07296869 0.056191474 -0.06928209 -0.043540027
0.07217714 -0.036606845 0.078536004 0.047899112 0.084995255 0.046035547 -0.07745536 -0.08037672
-0.08144772 0.0837478 0.09701963 0.047668677 0.07077196 0.06837105 0.0654723 -0.04803326
-0.036167435 0.06941608 0.053006537 0.0638884 -0.021169754 -0.08825836 -0.05755684 -0.06355953
0.075020775 0.05007806 -0.08376685 0.0438893 0.05751227 0.04528934 -0.081708424 -0.046696752
0.07124863 0.0857758 -0.034175135 0.049557853 -0.059658933 -0.048699643 0.047288634 0.068872765
0.07082025 0.044346064 0.0500225 0.059428476 0.051998198 0.07897299 0.04701327 -0.06844414
0.0453493 -0.08910078 0.047088683 -0.042415533 -0.09277502 -0.085436895 0.072742134 0.06803782
-0.095076986 -0.0436518 0.07556335 0.035572216 0.038421005 0.07141073 0.0449331 0.08516038
0.09413432 -0.033829812 0.07683197 -0.06956985 -0.08032983 -0.087079525 0.05966356 0.07153168
-0.056137092 0.048953462 -0.040631708 -0.040337894 -0.071134984 -0.06320791 0.062183484 0.055646498
-0.04137587 -0.057992138 -0.07286616 -0.075265154 -0.07847666 0.07562316 -0.06574064 0.050420735
-0.035944782 -0.05817983 0.074438274 0.06393955 0.06680072 0.062334284 0.09150578 0.06788143
-0.067412995 -0.055101417 0.08456092 0.072713375 -0.07697843 0.05405398 -0.06370088 0.083134875
-0.06972138 0.051366154 0.069186464 0.09271932 -0.037385844 0.04769754 -0.014177536 -0.091339305
0.06256714 0.04086442 -0.08441284 -0.08648179 -0.07692482 0.060482807 0.07564318 0.0859065
-0.09208698 -0.052289 0.08330033 -0.08962092 0.03482159 -0.091500364 -0.076174565 -0.081833474
00000000: 56e5 44bd 9f0a 223d 75a0 20bd ca45 453d
00000010: cc91 65bd 3a55 a33d 70eb 1f3d 2a90 b1bd
00000020: 04c4 73bd 4e26 30bd 52fa 86bd 2a7e b2bd
00000030: 4df1 853d 89f6 1c3d 686d 8ebd 8b6f 8ebd
00000040: 89da bb3d da1e 9a3d 9fef 883c dd61 bc3d
00000050: 27cc bb3d f1a8 29bd 260f 953d 3297 ae3d
00000060: c947 9c3d 2569 803d a048 8fbd f16d f0bc
00000070: 6509 8cbd 73b9 883d 66f3 613d c0f7 48bd
00000080: bf51 b63d 7215 453d 57fd afbc 8067 66bd
00000090: a978 80bd 20f6 893d 1f91 3fbd 7e10 8b3d
000000a0: ad80 c63c 8794 813d cb39 a83d a4a9 1f3d
000000b0: 6fc4 143d bdf9 18bd 129d 863d 9c43 163d
000000c0: 3046 373d 9a3b 2bbd bd6e 23bd 2170 64bd
000000d0: 1fc7 85bd 13ec 893d 541e 91bd c332 813d
000000e0: 84f9 8a3d 4fb9 a5bd a0b2 54bd eff0 713d
000000f0: ff51 3cbd 1c97 a03d c9e6 953d 4707 3c3d
00000100: b1dc a3bd 7dc0 a6bd ed8a 993d 9640 65bd
00000110: 94d3 b63d 4b91 613d 675d 55bd f12f 303d
00000120: 1c33 363d bcba 7b3d 2c3a bf3d 353e 503d
00000130: e50e b33d f09d 443d 5346 51bd 5774 0cbd
00000140: 9d9f 8e3d 820c 873d 9d46 b2bd 5de1 963d
00000150: f5dc 1bbd a4f3 6d3d 58c2 c53d 8bab c03d
00000160: 0532 393d 17b8 22bd a1a7 b8bd e197 ad3d
00000170: 4a3e 31bd 1903 913d 7848 8dbd b862 bebd
00000180: 6923 363d 093c a6bd 4a8e 593d dde2 3e3d
00000190: d8c6 b9bd 5358 bd3d ed3f 5a3d 5548 91bd
000001a0: d508 253d 8bf0 7e3d fffa 883d 8034 393d
000001b0: 9e5b 323d 18b8 0e3d e54f 913d a741 b5bd
000001c0: 5ba9 61bd fc5f 73bd d987 993d 4531 a23d
000001d0: 7580 86bd cb54 afbd 1062 fbbc 2032 88bd
000001e0: 105b 4a3d 978f 6ebd 0e88 11bd df61 b6bd
000001f0: 9c70 95bd 0829 663d c5e3 8dbd 0757 32bd
00000200: 9cd1 933d 0ff1 15bd 7cd7 a03d dc31 443d
00000210: fe11 ae3d c58f 3c3d eaa0 9ebd 8d9c a4bd
00000220: 10ce a6bd f783 ab3d 3ab2 c63d 3b40 433d
00000230: e4f0 903d 1f06 8c3d 5716 863d 86be 44bd
00000240: 4e24 14bd 052a 8e3d 621d 593d ecd7 823d
00000250: 316c adbc cdc0 b4bd b9c0 6bbd 802b 82bd
00000260: 7ea4 993d a71e 4d3d f48d abbd 44c5 333d
00000270: fc91 6b3d 5181 393d bf56 a7bd 1845 3fbd
00000280: cdea 913d 39ab af3d 3afb 0bbd 2dfd 4a3d
00000290: ed5c 74bd 4779 47bd bab1 413d 2a0d 8d3d
000002a0: 350a 913d 38a4 353d 65e4 4c3d 466b 733d
000002b0: 10fc 543d 97bc a13d fd90 403d 712c 8cbd
000002c0: 30c0 393d 787a b6bd 10e0 403d e9bb 2dbd
000002d0: d400 bebd 8af9 aebd d4f9 943d 6a57 8b3d
000002e0: b9b7 c2bd 3bcc 32bd f5c0 9a3d 2cb4 113d
000002f0: 585f 1d3d ca3f 923d c50b 383d 9168 ae3d
00000300: 7fc9 c03d 2191 0abd 145a 9d3d a37a 8ebd
00000310: f783 a4bd c056 b2bd c761 743d 347f 923d
00000320: 02f0 65bd 6d83 483d 6f6d 26bd 5939 25bd
00000330: 38af 91bd 2673 81bd 1cb4 7e3d 95ed 633d
00000340: bf79 29bd 2a89 6dbd da3a 95bd 9e24 9abd
00000350: 5fb8 a0bd 51e0 9a3d 07a3 86bd f985 4e3d
00000360: d63a 13bd f94d 6ebd 1873 983d bdf2 823d
00000370: d1ce 883d 3c52 7f3d 6267 bb3d 6b05 8b3d
00000380: d30f 8abd 06b2 61bd 472e ad3d c0ea 943d
00000390: dea6 9dbd b567 5d3d 9b75 82bd 9e42 aa3d
000003a0: 15ca 8ebd 5165 523d a2b1 8d3d a0e3 bd3d
000003b0: e621 19bd 7f5e 433d e548 68bc 1a10 bbbd
000003c0: 3323 803d 7361 273d a4e0 acbd 5d1d b1bd
000003d0: c38a 9dbd d2bc 773d d0ea 9a3d bfef af3d
000003e0: 1998 bcbd fe2c 56bd 5d99 aa3d 2c8b b7bd
000003f0: 15a1 0e3d 8b64 bbbd 6901 9cbd 4f98 a7bd

cl1|bias f4 [256]
0.42477307 0.45381883 -0.089461185 0.50258696 -0.081742905 0.13395716 -0.23389396 0.33800244
0.4714052 -0.36099228 0.4758987 0.14242716 0.41036385 0.11159139 0.28106952 -0.04260277
0.42920738 0.11582336 -0.21838401 0.16802153 -0.22260146 -0.022931162 -0.19456328 0.37184748
-0.39174673 -0.20808232 -0.1168835 -0.27998996 0.088018164 -0.47402304 0.49639994 -0.4051076
0.43038833 0.13099456 -0.1372602 0.34879372 0.11790177 0.44276658 0.09529189 -0.13429265
0.1744105 -0.10718098 0.2534674 0.47745287 0.324948 -0.20112562 0.33134875 0.13288423
0.2992062 -0.28984138 -0.47939852 -0.17332938 -0.35783702 0.44908673 0.18920647 0.2514989
0.20180644 0.027365757 0.43232474 -0.3552568 0.06904384 -0.31798288 0.19962335 -0.15297307
0.19857778 -0.07147187 0.45404264 -0.2906438 -0.2843902 -0.2882455 0.49422756 0.20926687
0.5244125 -0.39531797 -0.48582435 -0.3694122 -0.3157664 0.24385515 0.2201176 0.4563379
-0.2399081 -0.32042858 0.3066572 -0.17669551 0.3474325 -0.088444024 0.33076492 -0.37299258
-0.23281509 0.19226283 0.14789096 -0.10481431 0.3420984 0.38247278 -0.3514652 -0.25531772
0.50292397 -0.15171362 -0.16401723 -0.4722482 -0.2702205 0.1694941 -0.05626498 -0.3535835
0.052541595 -0.32187814 -0.40941525 -0.26149806 -0.41057062 -0.31189448 0.5434285 0.1432225
0.1970843 -0.44538355 -0.30477598 -0.13789624 0.11980691 -0.42432225 -0.19663264 -0.28533646
0.03898743 -0.16488591 0.0040455936 -0.32164407 -0.33522645 -0.27166793 -0.15216015 -0.38148233
0.45246306 -0.07277927 0.47064197 0.20216465 -0.4103756 0.38583302 -0.13002525 -0.169301
-0.41503525 -0.47588828 0.187849 -0.09177247 0.2358502 -0.4023503 0.41313636 -0.36702687
-0.05318992 0.15004577 0.30382258 0.44560558 0.49981686 -0.38229665 0.16963251 -0.20676036
-0.027826667 -0.35604292 0.49529612 -0.35822168 0.30923933 0.2114256 0.20649113 -0.2350676
0.49595702 0.14869967 0.10871746 -0.42572284 0.25314423 -0.046487577 -0.2101378 0.47120386
0.15512055 -0.26401582 -0.24022429 0.012069553 0.32380766 -0.10234349 -0.26400742 -0.16247097
-0.35667354 0.22220007 0.42866486 -0.47072017 0.16037957 0.30451804 0.1311184 -0.15690815
0.30275953 0.30781084 0.22424509 -0.06700654 -0.11041243 0.08981753 -0.061454423 -0.13004301
0.36295578 0.47120786 -0.029964497 -0.0896 0.03408457 -0.0026271648 0.14328583 0.18251413
-0.4326922 -0.16787599 0.45775664 0.23229955 -0.009064499 -0.2798802 -0.28810564 -0.43517977
-0.13530023 0.20915596 0.35943764 0.27250573 -0.44197202 -0.28193864 -0.05970958 0.51642776
0.109798394 -0.09338566 0.2514925 -0.1773535 -0.30411026 0.40695187 -0.19931409 -0.083393425
-0.4953399 0.37642974 0.42167735 0.22371864 -0.32742766 -0.48716864 -0.39281073 0.41778687
0.28220645 0.46145788 0.30750135 0.1672854 0.03131319 -0.3698496 -0.41597396 -0.46150148
0.2482125 -0.23526217 -0.065798484 -0.2773791 -0.07469029 -0.3313328 -0.30772236 0.20970787
-0.12063523 0.35548997 -0.1317127 -0.35231823 -0.058879778 -0.21971951 -0.12903865 -0.4648624
00000000: db7b d93e f15a e83e 6d37 b7bd 8aa9 003f
00000010: d368 a7bd 112c 093e e681 6fbe a80e ad3e
00000020: 065c f13e fbd3 b8be ffa8 f33e 6dd8 113e
00000030: 361b d23e 078a e43d 58e8 8f3e 3e80 2ebd
00000040: 12c1 db3e cc34 ed3d 0fa0 5fbe d60d 2c3e
00000050: a3f1 63be 22da bbbc 993b 47be cb62 be3e
00000060: 0793 c8be 8813 55be 9e60 efbd d85a 8fbe
00000070: de42 b43d 26b3 f2be 2228 fe3e 436a cfbe
00000080: dc5b dc3e 7023 063e f08d 0cbe 1795 b23e
00000090: 7c76 f13d 4db2 e23e 6528 c33d 0384 09be
000000a0: ab98 323e b481 dbbd 7bc6 813e b474 f43e
000000b0: 965f a63e e0f3 4dbe 8ba6 a93e ce12 083e
000000c0: 8e31 993e 1766 94be b973 f5be 427d 31be
000000d0: 6a36 b7be b2ee e53e 57bf 413e 77c4 803e
000000e0: 59a6 4e3e 272e e03c ab59 dd3e 38e4 b5be
000000f0: db66 8d3d a7ce a2be 106a 4c3e f9a4 1cbe
00000100: f957 4b3e d85f 92bd 4778 e83e 44cf 94be
00000110: 989b 91be ea94 93be 650b fd3e 0e4a 563e
00000120: e63f 063f 1e67 cabe f8bd f8be 9923 bdbe
00000130: 22ac a1be 2ab5 793e 8266 613e 1fa5 e93e
00000140: 78aa 75be 370f a4be 2c02 9d3e abef 34be
00000150: ace2 b13e 2422 b5bd 055a a93e e2f8 bebe
00000160: 1467 6ebe 8ce0 443e ba70 173e e3a8 d6bd
00000170: 8627 af3e 79d3 c33e 3ff3 b3be 01b9 82be
00000180: a0bf 003f d15a 1bbe 22f4 27be 84ca f1be
00000190: 575a 8abe dd8f 2d3e 1c76 66bd e608 b5be
000001a0: db35 573d 36cd a4be e09e d1be 13e3 85be
000001b0: 5036 d2be a2b0 9fbe 211e 0b3f eba8 123e
000001c0: 77d0 493e 5009 e4be 990b 9cbe ac34 0dbe
000001d0: 535d f53d c440 d9be 115a 49be 9f17 92be
000001e0: 49b1 1f3d dad7 28be e690 843b 88ae a4be
000001f0: cda2 abbe 0f18 8bbe dfcf 1bbe a751 c3be
00000200: 3da9 e73e 4c0d 95bd fcf7 f03e 4004 4f3e
00000210: c01c d2be e88b c53e 5725 05be 3e5d 2dbe
00000220: 807f d4be a1a7 f3be 7d5b 403e 34f3 bbbd
00000230: b782 713e dc00 cebe 9c86 d33e f2ea bbbe
00000240: acdd 59bd 99a5 193e a28e 9b3e 6a26 e43e
00000250: ffe7 ff3e 63bc c3be 25b4 2d3e fdb8 53be
00000260: c0f4 e3bc 424b b6be 7497 fd3e d568 b7be
00000270: 9e54 9e3e f47f 583e 6972 533e 90b5 70be
00000280: 14ee fd3e ba44 183e 42a7 de3d 58f8 d9be
00000290: 1f9c 813e c269 3ebd 5d2e 57be a241 f13e
000002a0: ecd7 1e3e 152d 87be 5bfd 75be 60bf 453c
000002b0: 1eca a53e 7799 d1bd fb2b 87be ca5e 26be
000002c0: ea9d b6be 6a88 633e f679 db3e 3c02 f1be
000002d0: 8b3a 243e cae9 9b3e e743 063e 88ac 20be
000002e0: 4c03 9b3e 6299 9d3e 81a0 653e ba3a 89bd
000002f0: e91f e2bd 41f2 b73d a2b7 7bbd ff29 05be
00000300: 57d5 b93e 2842 f13e 1b78 f5bc 3480 b7bd
00000310: 439c 0b3d 832c 2cbb 85b9 123e fce4 3a3e
00000320: d589 ddbe afe7 2bbe 145f ea3e efdf 6d3e
00000330: 4483 14bc 754c 8fbe 9582 93be e2cf debe
00000340: 258c 0abe fb2c 563e 3608 b83e df85 8b3e
00000350: 284a e2be 435a 90be 0892 74bd 9c34 043f
00000360: fbdd e03d fb40 bfbd a0c3 803e 289c 35be
00000370: 57b4 9bbe ff5b d03e fe18 4cbe 2cca aabd
00000380: 319d fdbe 66bb c03e 18e6 d73e 8016 653e
00000390: 99a4 a7be 2b6e f9be 7d1e c9be 29e8 d53e
000003a0: 5d7d 903e 3544 ec3e d170 9d3e dd4c 2b3e
000003b0: 4242 003d ed5c bdbe 8afa d4be ec49 ecbe
000003c0: 6b2b 7e3e 91e8 70be 5bc1 86bd a204 8ebe
000003d0: 39f7 98bd 74a4 a9be c98d 9dbe a9bd 563e
000003e0: 9a0f f7bd c802 b63e b2df 06be 0e63 b4be
000003f0: ec2b 71bd 27fe 60be b522 04be 7202 eebe

al|weight f4 [2, 256]
0.014182207 -0.06999687 0.027028741 0.060288087 0.05325313 -0.012642705 -0.04472128 0.042546824
0.03585998 -0.02768432 0.03269309 0.010537958 -0.015937062 0.041222896 0.027538031 0.015551785
-0.036998216 -0.0040641166 0.08394106 -0.0028687005 -0.059664086 -2.3889397e-05 -0.019512331 0.02609257
-0.03107186 -0.0071721138 -0.055056427 -0.050043 -0.040662467 -0.040662896 0.024894891 0.03990073
0.033514634 -0.026997006 -0.04333547 0.02535439 -0.029395936 -0.03268038 0.011005616 0.030641789
0.0008866729 -0.05054942 0.008178318 0.032706585 -0.01251513 -0.038862552 0.018309105 0.00972274
-0.026775245 -0.031337004 -0.041457318 -0.008483337 0.026347537 -0.01623288 0.0027967638 -0.032092333
-0.017115016 0.005266798 0.023611886 0.05277562 -0.04790838 -0.016571736 -0.014990516 0.04118753
-0.023277765 -0.018042045 -0.04621616 0.028675225 -0.023637366 -0.004402228 -0.024871806 -0.04424551
-0.053464267 0.0024170845 -0.0026089407 -0.0002911992 0.054165877 -0.034888502 -0.012298145 0.00061725307
0.054997988 0.042434115 0.041776676 -0.056377914 0.026175547 -0.06270541 0.02046883 -0.0504802
0.06325137 0.061312415 0.0030462635 0.009310831 -0.04858268 -0.027798817 -0.0029900416 -0.005982334
-0.06289557 -0.032609977 -0.033780046 0.026643522 0.015626552 -0.027872259 0.037057307 -0.05150633
0.007862788 0.051307537 -0.008841355 0.007906676 -0.021172665 -0.007786296 -0.023640858 0.014417363
-0.029628903 -0.016813455 -0.051342513 0.024471547 -0.05097956 -0.032367837 0.028573696 0.057532478
-0.047998227 -0.06026574 0.0324638 -0.022999704 0.02817575 0.06103807 0.03685866 0.008812192
-0.013879125 -0.030700928 -0.0047434843 0.017303267 0.037385598 0.056561455 0.00798032 -0.010246272
0.053034056 -0.041537266 -0.04550987 0.0033825156 0.03104385 0.0046020905 -0.011678278 0.03362664
-0.044579025 -0.004608258 0.048063204 -0.01901786 0.09105912 -0.0376616 -0.048313674 0.052595325
0.003312957 -0.051640693 -0.023526898 0.030319486 -0.01682106 0.057371482 -0.06812476 0.036732063
-0.01950743 -0.0689787 -0.06015236 0.036687475 -0.020768587 -0.057948604 0.05883461 0.015065087
0.054356318 -0.04810396 -0.032660894 0.053887866 0.057409577 0.009846525 -0.038350064 0.027366677
-0.00082184887 0.044314355 -0.06422453 -0.04126845 0.06333371 -0.0012702487 0.053666677 0.00024984658
0.034695894 0.035953432 0.006125538 0.061524604 -0.00053913315 0.042007584 -0.02854469 0.036159605
-0.04221291 -0.021314615 0.009221799 -0.021479236 0.04512017 -0.053910367 0.0042124516 0.029524105
0.04532338 0.019262588 -0.05242786 0.027431421 0.02912334 0.011262905 -0.04863861 -0.042848926
-0.016254297 -0.016299563 -0.053445004 -0.052688863 0.027547166 0.0031408155 0.03360255 -0.02403654
0.032856 0.024738804 -0.04866987 -0.003064441 -0.01669147 0.00014806102 0.039872758 -0.034438778
0.046036437 -0.0020042437 -0.009511388 0.0033267834 0.0044850307 -0.017735824 0.010159773 -0.060510773
-0.050153155 0.009908267 -0.025027337 0.028336946 0.01783318 0.043214593 0.0795596 -0.020956444
-0.0010011073 0.04629819 -0.057700925 0.024671014 0.01752169 -0.010852728 -0.045734573 0.053023
-0.018642653 0.046970643 -0.031117208 -0.02766118 0.04504282 -0.032511525 0.04015415 0.00937976
00000000: 7d5c 683c 855a 8fbd 616b dd3c a4f0 763d
00000010: f41f 5a3d 5923 4fbc a92d 37bd 9445 2e3d
00000020: eae1 123d 3aca e2bc 31e9 053d 66a7 2c3c
00000030: 718e 82bc 57d9 283d 7097 e13c eacc 7e3c
00000040: 718b 17bd 482c 85bb 4ae9 ab3d cf00 3cbb
00000050: 5462 74bd 1766 c8b7 53d8 9fbc 16c0 d53c
00000060: 6a8a febc 0d04 ebbb d982 61bd e4f9 4cbd
00000070: b08d 26bd 238e 26bd 5ff0 cb3c f36e 233d
00000080: a446 093d d328 ddbc 8980 31bd 02b4 cf3c
00000090: bfcf f0bc dddb 05bd e650 343c 7d04 fb3c
000000a0: 9c6f 683a e90c 4fbd 5afe 053c 57f7 053d
000000b0: 430c 4dbc 572e 1fbd fafc 953c 214c 1f3c
000000c0: c257 dbbc 3b5b 00bd 26cf 29bd b2fd 0abc
000000d0: cad6 d73c d1fa 84bc e949 373b 4073 03bd
000000e0: ca34 8cbc 1b95 ac3b b76d c13c 402b 583d
000000f0: 943b 44bd 73c1 87bc c89a 75bc 41b4 283d
00000100: 03b1 bebc e9cc 93bc 284d 3dbd 4ee8 ea3c
00000110: 26a3 c1bc 9140 90bb f5bf cbbc c83a 35bd
00000120: 59fd 5abd f367 1e3b c3fa 2abb 18ac 98b9
00000130: 0add 5d3d 3fe7 0ebd 297e 49bc 27cf 213a
00000140: 9245 613d 65cf 2d3d 051e 2b3d 87ec 66bd
00000150: 1a6e d63c b26b 80bd 3fae a73c 54c4 4ebd
00000160: ef89 813d ba22 7b3d d2a3 473b 758c 183c
00000170: a2fe 46bd 58ba e3bc 93f4 43bb 7407 c4bb
00000180: 65cf 80bd 0a92 05bd f25c 0abd 8443 da3c
00000190: 4103 803c 5d54 e4bc 67c9 173d 4df8 52bd
000001a0: ecd2 003c da27 523d 55db 10bc 018b 013c
000001b0: 4c72 adbc 2f24 ffbb 79aa c1bc ce36 6c3c
000001c0: 50b8 f2bc 5fbc 89bc 874c 52bd 8e78 c83c
000001d0: f1cf 50bd 2394 04bd 6213 ea3c 2da7 6b3d
000001e0: ca99 44bd 35d9 76bd c3f8 043d e069 bcbc
000001f0: d5d0 e63c 0e03 7a3d 1bf9 163d 0361 103c
00000200: 4565 63bc 8380 fbbc 3b6f 9bbb 95bf 8d3c
00000210: a421 193d fcac 673d e3bf 023c fbdf 27bc
00000220: 3d3a 593d fb22 2abd 8f68 3abd 32ad 5d3b
00000230: ac4f fe3c 22cd 963b 4056 3fbc 16bc 093d
00000240: 7f98 36bd df00 97bb ecdd 443d 58cb 9bbc
00000250: 347d ba3d 0d43 1abd 8fe4 45bd 326e 573d
00000260: 321e 593b 3185 53bd 7bbb c0bc 9260 f83c
00000270: 52cc 89bc 5cfe 6a3d ff84 8bbd 5c74 163d
00000280: 0cce 9fbc b444 8dbd 5262 76bd 9b45 163d
00000290: e222 aabc 845b 6dbd 8ffc 703d 8ed3 763c
000002a0: bba4 5e3d a808 45bd 6ec7 05bd 86b9 5c3d
000002b0: 4e26 6b3d 5253 213c f514 1dbd 1530 e03c
000002c0: 5871 57ba f882 353d 2688 83bd 1b09 29bd
000002d0: 1bb5 813d 797e a6ba 97d1 5b3d d7fd 8239
000002e0: 481d 0e3d e843 133d bdb8 c83b 3901 7c3d
000002f0: 9d54 0dba 2510 2c3d 8ed6 e9bc 181c 143d
00000300: 72e7 2cbd fd9b aebc 0717 173c 39f5 afbc
00000310: edcf 383d 1ed1 5cbd 9b08 8a3b 89dc f13c
00000320: 02a5 393d 93cc 9d3c 99be 56bd dcb7 e03c
00000330: 1294 ee3c 0c88 383c 4739 47bd 5b82 2fbd
00000340: bb27 85bc a986 85bc 26e9 5abd 47d0 57bd
00000350: 98aa e13c 24d6 4d3b d4a2 093d 47e8 c4bc
00000360: 0394 063d 08a9 ca3c 0f5a 47bd cad4 48bb
00000370: 8dbc 88bc d440 1b39 9e51 233d ad0f 0dbd
00000380: b490 3c3d a159 03bb a7d5 1bbc 2a06 5a3b
00000390: 2af7 923b b84a 91bc 2d75 263c 25da 77bd
000003a0: 656d 4dbd 4956 223c 2106 cdbc e222 e83c
000003b0: e416 923c c901 313d 25f0 a23d d9ac abbc
000003c0: 9637 83ba 2ca3 3d3d ce57 6cbd de1a ca3c
000003d0: a689 8f3c a4cf 31bc 2d54 3bbd a52e 593d
000003e0: 7ab8 98bc 4a64 403d 84e9 febc b399 e2bc
000003f0: d27e 383d ce2a 05bd ae78 243d 91ad 193c

cl3|bias f4 [256]
-0.07842314 0.009810481 -0.04129902 -0.0027488226 -0.07808439 0.0708636 0.07912822 -0.08548504
-0.01083423 -0.0057267314 0.031793512 0.007512837 0.08762284 0.013649622 0.01541657 0.020723524
-0.03056162 -0.021249533 0.026581146 0.062463768 -0.002421156 -0.029410934 0.02966765 0.044664882
-0.0063853995 0.065781884 0.011278863 -0.07234815 -0.029486116 0.029832333 0.051362634 0.02869351
0.04703881 0.019968152 0.042406283 -0.05530077 -0.04862007 0.034600303 -0.0788229 0.036378633
-0.014510172 0.03730807 0.03448818 0.038366493 -0.022348903 -0.09119218 0.05902599 0.08844112
-0.02375126 -0.007101776 -0.07865762 -0.026939182 0.029251613 0.07591243 -0.075264074 0.06970216
0.06238817 -0.029217245 0.028872967 0.0057304357 -0.048474852 -0.0028709432 0.036610257 0.046304163
-0.024459254 -0.06426746 0.0016426927 -0.009545815 -0.02598112 0.022137549 -0.033339564 0.0037025032
0.05729134 0.03400192 0.07245867 0.025973806 -0.010728315 0.0771825 -0.022149565 -0.046310265
-0.011601741 0.04403969 -0.08795423 0.045017466 -0.005217993 -0.02470596 -0.01241055 -0.016247582
0.081277065 0.017807348 -0.024694916 0.087010525 -0.054496605 -0.031072069 -0.008224819 -0.0065042092
0.09387825 -0.028902374 0.07765458 0.070647605 0.01648973 -0.033229362 0.081690185 -0.082198575
0.094351366 0.028244987 -0.025826663 0.050735038 0.02257562 -0.028469196 0.0066246986 -0.02226336
0.02215983 -0.050407287 0.06621967 0.036690455 -0.02823668 -0.016879976 -0.0666211 -0.08203857
0.011521609 -0.08842088 -0.065019764 -0.025653563 -0.07094608 0.004372486 -0.041343514 -0.040588826
-0.004674269 -0.035540927 0.019777237 0.050458875 0.031245168 -1.2811506e-06 -0.050502915 -0.028937992
-0.06793618 0.03362274 0.024285415 0.0563362 0.04423771 0.07652915 0.027836442 -0.078493804
-0.008009133 -0.012339696 0.022322077 0.009937191 -0.030639067 -0.05170446 0.029549353 0.0057359654
0.04648583 0.09090186 -0.08533227 0.041578095 0.07169834 0.07242088 -0.07866182 -0.009389142
-0.006133339 0.026357817 -0.04431749 -0.0187445 -0.08955065 -0.07192093 0.060548972 0.057596795
-0.026750604 0.0073074456 0.032545164 -0.023312535 0.066106 0.08422684 0.044162787 -0.07574683
0.04781113 -0.00608449 0.07730964 -0.06403416 -0.08446343 -0.0014385919 0.032812003 0.009109531
-0.054848146 -0.066042915 0.079771124 0.014621129 0.079106495 0.085185885 0.04152643 0.04238871
0.024215441 0.013490064 -0.02832543 -0.002606152 -0.0391806 0.00022986642 0.029053785 0.0057585235
-0.03840022 0.06667987 -0.07490911 -0.07463595 -0.043303274 -0.051466886 0.05470695 0.071894206
-0.040109124 0.028725026 -0.05553982 -0.06389036 -0.05763579 -0.0140550425 -0.07385032 -0.023363719
-0.08576007 -0.014131872 0.06707487 0.08886726 0.0834421 0.02666413 0.040347125 -0.0075128637
-0.0051368875 -0.090027116 0.058453444 0.04136725 -0.009674807 0.0505442 -0.05955553 0.08138513
5.0026672e-05 0.07314476 0.03796965 0.067793645 0.009242253 0.059010185 0.02499764 -0.039973278
0.07086169 0.04266735 0.008786196 0.031854726 -0.015145145 0.0063367956 0.023548124 0.0464037
-0.018014232 -0.04953173 0.077874616 0.00905286 -0.0029069646 -0.03376913 -0.03532021 -0.06805323
00000000: 509c a0bd 24bc 203c 2929 29bd 9725 34bb
00000010: b5ea 9fbd ef20 913d fa0d a23d c812 afbd
00000020: 0e82 31bc 4ea7 bbbb ea39 023d 3f2e f63b
00000030: 9b73 b33d aaa2 5f3c c895 7c3c 61c4 a93c
00000040: 5d5c fabc 8013 aebc b4c0 d93c 02da 7f3d
00000050: 42ac 1ebb 33ef f0bc 9209 f33c 86f2 363d
00000060: 9d3c d1bb a7b8 863d fbca 383c 442b 94bd
00000070: de8c f1bc f062 f43c a061 523d a70e eb3c
00000080: c4ab 403d 4094 a33c 36b2 2d3d 0f83 62bd
00000090: d725 47bd 0cb9 0d3d e76d a1bd c301 153d
000000a0: 13bc 6dbc 59d0 183d 7a43 0d3d 2f26 1d3d
000000b0: 0c15 b7bc f7c2 babd 3dc5 713d 9e20 b53d
000000c0: 0192 c2bc 04b6 e8bb 3f17 a1bd 8faf dcbc
000000d0: 14a1 ef3c fa77 9b3d 0d24 9abd 02c0 8e3d
000000e0: bd8a 7f3d 0159 efbc 0087 ec3c 61c6 bb3b
000000f0: 918d 46bd 6f26 3cbb a3f4 153d 6fa9 3d3d
00000100: c65e c8bc a89e 83bd 9f4f d73a 0d66 1cbc
00000110: 5cd6 d4bc ce59 b53c 118f 08bd b2a5 723b
00000120: 53aa 6a3d 9945 0b3d 3665 943d 05c7 d43c
00000130: d1c5 2fbc dc11 9e3d 0173 b5bc d5af 3dbd
00000140: 3b15 3ebc f662 343d 5921 b4bd 3c64 383d
00000150: b3fb aabb 2764 cabc 9f55 4bbc a619 85bc
00000160: 9774 a63d b7e0 913c fe4c cabc 9332 b23d
00000170: d537 5fbd da8a febc 64c1 06bc 4321 d5bb
00000180: 3d43 c03d acc4 ecbc 5d09 9f3d b1af 903d
00000190: 7815 873c 831b 08bd 2f4d a73d ba57 a8bd
000001a0: 4a3b c13d 0862 e73c 7092 d3bc 8bcf 4f3d
000001b0: 82f0 b83c 3b38 e9bc 0014 d93b a661 b6bc
000001c0: 8888 b53c df77 4ebd 2e9e 873d bb48 163d
000001d0: 9c50 e7bc e047 8abc a570 88bd d603 a8bd
000001e0: 21c5 3c3c 0216 b5bd 1529 85bd 6c27 d2bc
000001f0: 2e4c 91bd 1247 8f3b d157 29bd 7840 26bd
00000200: 9c2a 99bb 5d93 11bd df03 a23c f7ad 4e3d
00000210: def5 ff3c 00f4 abb5 25dc 4ebd 5e0f edbc
00000220: 2022 8bbd 00b8 093d 35f2 c63c cac0 663d
00000230: 9a32 353d 51bb 9c3d 4009 e43c 5cc1 a0bd
00000240: bd38 03bc 702c 4abc cadc b63c 9acf 223c
00000250: c8fe fabc 0ec8 53bd 7c11 f23c c4f4 bb3b
00000260: ed67 3e3d c12a ba3d afc2 aebd cb4d 2a3d
00000270: 94d6 923d 6651 943d 7319 a1bd ead4 19bc
00000280: 2dfa c8bb 59ec d73c 4286 35bd 118e 99bc
00000290: 5566 b7bd 484b 93bd 3302 783d 9eea 6b3d
000002a0: 1524 dbbc 4c73 ef3b 144e 053d eef9 bebc
000002b0: 9562 873d 1f7f ac3d 0ae4 343d 2721 9bbd
000002c0: 9ad5 433d 6760 c7bb 8454 9e3d 5724 83bd
000002d0: 2afb acbd 228f bcba e165 063d 2440 153c
000002e0: 73a8 60bd 8241 87bd 0b5f a33d 768d 6f3c
000002f0: 9602 a23d f075 ae3d 9e17 2a3d c99f 2d3d
00000300: 765f c63c 6e05 5d3c bb0a e8bc facb 2abb
00000310: d67b 20bd 4c08 7139 3402 ee3c ffb1 bc3b
00000320: 8d49 1dbd 758f 883d f369 99bd bcda 98bd
00000330: c65e 31bd f1ce 52bd 6514 603d 453d 933d
00000340: 7749 24bd bf50 eb3c b97d 63bd f3d8 82bd
00000350: 8213 6cbd 1f47 66bc d63e 97bd 4565 bfbc
00000360: faa2 afbd 5e89 67bc 8d5e 893d 0a00 b63d
00000370: b1e3 aa3d bc6e da3c 0743 253d 782e f6bb
00000380: 5653 a8bb 2360 b8bd e16c 6f3d b570 293d
00000390: 1583 1ebc 6f07 4f3d 80f0 73bd 3fad a63d
000003a0: bbd3 5138 eccc 953d 1086 1b3d 65d7 8a3d
000003b0: d26c 173c aab4 713d dac7 cc3c 05bb 23bd
000003c0: ef1f 913d f6c3 2e3d faf3 0f3c 1a7a 023d
000003d0: 5823 78bc e5a4 cf3b ffe7 c03c ce11 3e3d
000003e0: 9592 93bc c9e1 4abd ba7c 9f3d 7252 143c
000003f0: c682 3ebb 8051 0abd edab 10bd 7e5f 8bbd
